model.pth (torch, 732631 bytes, 6 tensors)

conv1.0.weight f4 [32, 1, 3, 3]
0	0x3e4f3c4d	0.20237847
1	0xbdcabfbb	-0.09899851
2	0xbe20790e	-0.15671179
3	0xbe1fa8fd	-0.15591808
4	0xbd90b84a	-0.070664
5	0xbe2b5d6a	-0.16734853
6	0x3c3608f9	0.011110538
7	0x3db0d83b	0.08634993
8	0x3e7ccaae	0.24686691
9	0xbd4a5923	-0.049401414
10	0xbe4e3857	-0.2013868
11	0xbdbc3f1b	-0.09191724
12	0x3cc80a4b	0.02441897
13	0x3dc7f14e	0.09762822
14	0xbe63f7e0	-0.22262526
15	0x3ead8712	0.33892113
16	0xbe10a6d7	-0.14126144
17	0xbd835526	-0.06412725
18	0x3b14af66	0.0022687553
19	0x3f00d5b6	0.50326097
20	0xbe2de1f1	-0.16980721
21	0x3c5ceecc	0.013484668
22	0xbe01b1d4	-0.12665492
23	0x3e4efc3a	0.20213404
24	0xbe30aff5	-0.17254622
25	0xbd4ea894	-0.050453737
26	0xbd5bc780	-0.053657055
27	0xbd9ca2d7	-0.07648247
28	0x3ec21e94	0.37913954
29	0xbd9916e4	-0.07475069
30	0xbd1d281c	-0.03836833
31	0x3ecb8bf4	0.39755213
32	0x3e5ab1d6	0.21356902
33	0x3d981eec	0.07427773
34	0xbdac2699	-0.084057994
35	0x3ef8d468	0.48599553
36	0x3e0f409c	0.1398949
37	0x3e43415f	0.19067906
38	0xbe85517f	-0.2603874
39	0xbdc490e9	-0.09597952
40	0x3d0fcae0	0.035105586
41	0x3cee92cc	0.029122733
42	0xbe511d9b	-0.2042145
43	0xbe95d7bc	-0.29266155
44	0x3d76ae74	0.060224965
45	0xbe712e61	-0.23552848
46	0xbd99f46c	-0.07517323
47	0xbdd623e6	-0.10456066
48	0x3e73b53f	0.23799609
49	0x3e2a4239	0.16626824
50	0xbdf85661	-0.121258505
51	0x3cd1f2b6	0.025628429
52	0x3e693b2f	0.22776483
53	0xbe5d7637	-0.21627127
54	0xbc538340	-0.01290971
55	0x3e4122be	0.1886091
56	0x3d47e6f5	0.048804242
57	0xbd40efff	-0.047103878
58	0x3ef84880	0.48492813
59	0x39b30c52	0.0003415072
60	0x3e70127b	0.2344455
61	0xbe6f3fab	-0.23364131
62	0x3ebfefa4	0.3748752
63	0x3e1dc3fc	0.15406793
64	0x3d4e9ed9	0.050444458
65	0x3e2accd1	0.16679694
66	0x3ced3eee	0.028960671
67	0xbecc5bdf	-0.39913842
68	0xbec3b799	-0.3822601
69	0x3e3c7a8d	0.18406124
70	0xbe19affe	-0.15008542
71	0x3e2664f6	0.16249451
72	0xbdf9183a	-0.12162824
73	0x3e63cd6a	0.22246328
74	0xbd4c7897	-0.04991969
75	0xbe3f590b	-0.18686311
76	0xbd623bab	-0.055232685
77	0xbddab761	-0.10679508
78	0xbe479141	-0.19489004
79	0x3b4e34fc	0.0031464687
80	0x3db0e9ad	0.0863832
81	0x3d59f24d	0.05320959
82	0x3df06f12	0.11739935
83	0x3decc528	0.11561042
84	0x3e9a6251	0.30153134
85	0xbd507366	-0.050891303
86	0xbe227403	-0.15864567
87	0xbe68ca7e	-0.22733495
88	0x3e94e8f7	0.29083988
89	0xbe459b2f	-0.19297479
90	0xbeb8317b	-0.3597525
91	0x3cf4398d	0.029812599
92	0x3c593a0d	0.013258469
93	0x3df4ebcd	0.11959038
94	0x3e0e8acb	0.13920133
95	0xbc7da436	-0.0154810455
96	0x3e474569	0.19460072
97	0xbe9a0c19	-0.30087355
98	0x3e19903b	0.14996426
99	0x3e5f3528	0.21797621
100	0x3e3be487	0.18348895
101	0xbeb7bc57	-0.3588588
102	0x3e65005e	0.22363421
103	0x3dfe87ec	0.12428269
104	0xbebd2b09	-0.36946896
105	0xbe209e95	-0.15685494
106	0xbde19986	-0.110156104
107	0x3e9b35ff	0.30314633
108	0x3d47f089	0.048813377
109	0x3e7a3d24	0.24437386
110	0x3dbe131c	0.092809886
111	0xbdc7e7d6	-0.09761016
112	0x3e93b4ff	0.28849027
113	0x394fba56	0.00019810474
114	0xbcb61568	-0.022227004
115	0xbde784ed	-0.113046505
116	0xbdd0f39e	-0.10202716
117	0xbe21ffea	-0.1582028
118	0x3e430c07	0.19047557
119	0x3e61b4d8	0.22041643
120	0xbe6256c3	-0.2210341
121	0x3e6d452a	0.23170915
122	0x3e1ba4f9	0.15199651
123	0xbe06ca23	-0.13163047
124	0xbe2f5606	-0.17122659
125	0x3e9fea1f	0.31233308
126	0x3df0d2d5	0.11758963
127	0xbc22ee62	-0.00994453
128	0x3de072f3	0.10959425
129	0xbe876485	-0.26443878
130	0x3dc47d0c	0.09594163
131	0x3e74588a	0.238619
132	0xbd39e107	-0.04538062
133	0x3dd01d6d	0.101618625
134	0x3e0ae579	0.135641
135	0x3d697c58	0.05700335
136	0x3e2276a1	0.15865566
137	0x3ebe26c9	0.37138966
138	0xbc28ea7f	-0.0103098145
139	0xbc73df1c	-0.014884736
140	0xbb4116f2	-0.002946314
141	0x3df9ac6b	0.12191089
142	0xbda4e936	-0.08052294
143	0xbe89e896	-0.2693526
144	0x3e28452c	0.16432637
145	0xbb50166a	-0.003175164
146	0x3d43f1a0	0.047837853
147	0xbdccbba0	-0.09996724
148	0xbe093e20	-0.13402605
149	0x3e856e8a	0.26060897
150	0x3e23a889	0.1598226
151	0xbdc75415	-0.09732834
152	0xbd99f6c8	-0.07517773
153	0xbe594ada	-0.2121996
154	0xbdaa8895	-0.08326832
155	0xbd907cef	-0.07055079
156	0xbe84a588	-0.2590754
157	0x3e50d428	0.20393431
158	0x3d8554ae	0.06510292
159	0x3d38597a	0.045007206
160	0xbc846b72	-0.016164515
161	0x3eb205f5	0.3477017
162	0x3c0375f8	0.008023731
163	0xbdde6578	-0.108591974
164	0x3e8f4ee2	0.2798987
165	0xbe429850	-0.19003415
166	0xbe0f0405	-0.13966377
167	0xbe09754e	-0.13423654
168	0x3e4101c4	0.1884833
169	0x3e8685d8	0.2627399
170	0x3e5a20f1	0.21301629
171	0x3e5ae1ad	0.21375151
172	0x3e4f191c	0.20224422
173	0x3e12d36b	0.14338462
174	0x3e153db3	0.14574318
175	0xbebe2d4f	-0.37143943
176	0x3e55ecf2	0.20891169
177	0xbe2ba183	-0.1676083
178	0x3d87b691	0.06626619
179	0xbe7c5827	-0.24643002
180	0xbe15de6c	-0.14635628
181	0x3e09f4b2	0.1347225
182	0x3e766c86	0.24064836
183	0xbd4d0eff	-0.05006313
184	0xbe0a8d03	-0.13530354
185	0xbc5f6b4a	-0.01363642
186	0xbd744e0c	-0.059644744
187	0xbe3e4276	-0.1858004
188	0x3e25227a	0.16126433
189	0x3da73de1	0.08166099
190	0xbe44f97a	-0.19235793
191	0x3d9935e0	0.07480979
192	0xbd0633a5	-0.032764096
193	0x3d609838	0.054832667
194	0xbd408517	-0.047001924
195	0x3d9db8cd	0.077012636
196	0x3d9cea5a	0.076618865
197	0x3e571880	0.2100544
198	0x3e3dbdb6	0.185294
199	0x3e94b349	0.29043034
200	0xbe3ee94c	-0.18643683
201	0x3e86610c	0.26245916
202	0xbe0ea4f6	-0.13930115
203	0xbddc610e	-0.10760699
204	0xbe189a39	-0.14902581
205	0xbe9ba6ae	-0.30400604
206	0x3e0a5af9	0.13511266
207	0xbd6630b1	-0.05619878
208	0x3e0def86	0.13860902
209	0x3ad0c98b	0.0015929205
210	0x3e4f7386	0.20258912
211	0xbdb5ff1d	-0.088865496
212	0x3e0f499c	0.13992923
213	0xbe571ad0	-0.21006322
214	0xbd3aeccb	-0.04563598
215	0xbe4a0561	-0.19728614
216	0xbd7a731c	-0.061144933
217	0xbe72d220	-0.23712969
218	0x3e2a7f15	0.1665004
219	0xbe0e6526	-0.13905773
220	0x3ec6d88f	0.38837096
221	0x3e2a40f3	0.16626339
222	0x3c4efa88	0.0126329735
223	0xbcc60bc1	-0.024175527
224	0x3e7377b1	0.23776127
225	0xbdecc988	-0.115618765
226	0xbe512862	-0.20425561
227	0x3e9ccf36	0.3062684
228	0x3ec42e6c	0.38316667
229	0x3d99c730	0.07508695
230	0xbdd73fe0	-0.1051023
231	0x3de0b65a	0.10972281
232	0xbd4810a8	-0.04884401
233	0xbe7cfadc	-0.2470507
234	0x3e842aaf	0.25813815
235	0xbe09d9c3	-0.13461976
236	0xbe94a9fa	-0.29035932
237	0x3e5f894a	0.21829715
238	0x3d63b1a3	0.05558933
239	0x3e8aac00	0.2708435
240	0xbcfcaefa	-0.030845154
241	0xbed757ce	-0.42059177
242	0x3d7fb3ef	0.062427457
243	0xbe6505ae	-0.22365448
244	0x3da3d73c	0.08000037
245	0x3e564fe0	0.20928907
246	0x3dfd8378	0.12378591
247	0x3e0a5bb3	0.13511543
248	0xbe684014	-0.22680694
249	0x3e49468b	0.19655816
250	0xbde3d378	-0.11124319
251	0xbd2f446b	-0.042789858
252	0xbe0cbaac	-0.13743085
253	0x3e12e6b4	0.14345819
254	0x398ae250	0.00026490027
255	0xbe6ac3d1	-0.2292626

conv1.0.bias f4 [32]
0	0xbe485407	-0.19563304
1	0xbdaf5c02	-0.08562471
2	0xbea64e2d	-0.32481518
3	0x3dfb1110	0.12259114
4	0x3deb4983	0.114886306
5	0xbe158998	-0.14603269
6	0xbda219d0	-0.079150796
7	0xbde30072	-0.11084069
8	0xbe9c0f7b	-0.3048056
9	0xbea1125d	-0.31459323
10	0xbd2c86f2	-0.04212088
11	0xbcb36fa3	-0.021903818
12	0xbdaa3c05	-0.08312229
13	0xbe245b90	-0.16050553
14	0xbe49b2a1	-0.19697048
15	0x3e80ab78	0.2513082
16	0x3e494083	0.19653516
17	0xbeb54f2f	-0.35411975
18	0x3e54d84b	0.20785634
19	0x3e5e2ed0	0.21697545
20	0x3c5ceefa	0.013484711
21	0x3e64d20f	0.22345756
22	0xbe9e1ee8	-0.30882955
23	0x3e16b312	0.14716747
24	0xbec26003	-0.37963876
25	0x3e4afc1f	0.19822739
26	0x3d2aff94	0.041747645
27	0x3e4378de	0.19089076
28	0xbeb83748	-0.35979676
29	0x3e766b06	0.24064264
30	0xbe2be401	-0.16786195
31	0xbf2d56a3	-0.6771032

conv2.0.weight f4 [64, 32, 3, 3]
0	0xbdceac41	-0.100914486
1	0xbdab7c5e	-0.083733305
2	0xbc5342e5	-0.012894367
3	0xbd95daf3	-0.07317152
4	0xbde86009	-0.11346442
5	0xbddc0631	-0.107433684
6	0xbd8ab42b	-0.067726456
7	0xbda801b9	-0.082034536
8	0xbc93458e	-0.017977502
9	0xbd81ffa2	-0.06347586
10	0xbdcd05bf	-0.100108616
11	0xbd646b73	-0.055766534
12	0xbd7ed1fd	-0.06221198
13	0xbd8cdafa	-0.06877704
14	0xbd1abe85	-0.03777935
15	0xbd812bbf	-0.06307172
16	0xbd99ae57	-0.07503956
17	0xbd28c407	-0.04120257
18	0xbcfe4f7d	-0.031043762
19	0xbd1e2bd3	-0.038616013
20	0xbd102636	-0.03519269
21	0xbd73f45a	-0.059559204
22	0xbcf959c7	-0.030438317
23	0xbd928961	-0.07155109
24	0xbd7e72d2	-0.06212122
25	0xbe0050c0	-0.12530804
26	0xbdafe484	-0.08588508
27	0xbd55e4b5	-0.052220065
28	0xbda19473	-0.078896426
29	0xbde23a8b	-0.110463224
30	0xbdb1e741	-0.08686686
31	0xbd7043b2	-0.05865831
32	0xbdb24957	-0.08705395
33	0xbdfd031b	-0.12354108
34	0xbdb5b466	-0.08872299
35	0xbd464224	-0.04840292
36	0xbbd933e4	-0.0066285003
37	0xbd95097a	-0.07277198
38	0xbd5e1ebe	-0.054228537
39	0xbddb12fa	-0.10696979
40	0xbc05a0d4	-0.00815602
41	0xbd52826e	-0.05139392
42	0xbdccb5e4	-0.099956304
43	0xbd31c002	-0.043396004
44	0xbdacde23	-0.08440807
45	0xbd850e1d	-0.064968325
46	0xbdc079fb	-0.09398266
47	0xbd4e5453	-0.050373387
48	0xbd449d9c	-0.04800187
49	0xbda66953	-0.08125558
50	0xbc35c55b	-0.0110944165
51	0xbd4012a2	-0.04689277
52	0xbe04e7ef	-0.129791
53	0xbdf44008	-0.119262755
54	0xbde49729	-0.11161644
55	0xbd180d7a	-0.037122227
56	0xbda4bddb	-0.080440246
57	0xbdede251	-0.11615432
58	0xbd54cbad	-0.051952053
59	0xbc4b1465	-0.012394999
60	0xbda32046	-0.0796514
61	0xbd135542	-0.03596998
62	0xbc908872	-0.017643187
63	0xbd07d912	-0.033166
64	0xbd2dfd25	-0.042477746
65	0xbda45c3b	-0.08025404
66	0xbd32c4a3	-0.04364456
67	0x3898f762	7.2940034e-05
68	0xbd71e1e9	-0.059053335
69	0xbdae80ca	-0.08520658
70	0xbc960484	-0.0183127
71	0xbddc1042	-0.107452884
72	0xbd0a3df2	-0.033750482
73	0xbc276917	-0.010217926
74	0x3c204e9e	0.009784369
75	0xbdb056a5	-0.08610276
76	0xbd839335	-0.06424562
77	0xbc8d2fec	-0.017234765
78	0xbd155e65	-0.036466975
79	0xbdbc2c0f	-0.09188091
80	0xbcf6123d	-0.030037994
81	0xbc9a3dd9	-0.01882832
82	0xbdac9a13	-0.08427825
83	0xbce16aa5	-0.027516672
84	0xbd95ab7c	-0.07308099
85	0xbde59961	-0.11210895
86	0xbc31eed4	-0.010860164
87	0xbd8a77ce	-0.06761132
88	0xbda8a6af	-0.08234917
89	0xbd8fd457	-0.070229225
90	0xbdccc6b8	-0.0999884
91	0xbd9b18b0	-0.07573068
92	0xbadc1d82	-0.0016793462
93	0xbc9176f4	-0.017756917
94	0xbd69b62f	-0.05705851
95	0xbd234e2d	-0.039869476
96	0xbc919258	-0.017769977
97	0xbc893f9b	-0.016753962
98	0xbc280f38	-0.010257535
99	0xbcc1be79	-0.023650395
100	0xbd71b127	-0.059006836
101	0xbdb4da0b	-0.08830651
102	0xbcf51445	-0.029916892
103	0xbd4fe698	-0.05075702
104	0xbc1298ee	-0.008947594
105	0xbde09a92	-0.10966982
106	0xbd2a86cb	-0.041632455
107	0xbda00a42	-0.078144565
108	0xbdce69f0	-0.100788
109	0xbdad8513	-0.084726475
110	0xbd705d4a	-0.058682717
111	0xbcb35b95	-0.021894256
112	0xbdf818c1	-0.121140964
113	0xbe035081	-0.12823679
114	0xbcfb2484	-0.03065706
115	0xbd97b921	-0.074083574
116	0xbcfa37b1	-0.030544134
117	0xbdce10bd	-0.10061786
118	0xbd1a8209	-0.037721667
119	0xbdc399da	-0.09550829
120	0xbcc8eeea	-0.024527986
121	0xbdd659ac	-0.10466322
122	0xbb9e57ca	-0.0048322426
123	0xbdba40c4	-0.09094384
124	0xbd9dce5a	-0.07705374
125	0xbca881ce	-0.020569708
126	0xbd555fde	-0.05209338
127	0xbd07ae29	-0.033125076
128	0xbbc53f46	-0.0060195057
129	0xbd9c7a5b	-0.07640525
130	0xbdb6d84c	-0.08927974
131	0xbc85114c	-0.0162436
132	0xbd82670f	-0.06367313
133	0xbd145696	-0.036215387
134	0xbda09b03	-0.07842066
135	0xbe099319	-0.1343502
136	0xbd90f48b	-0.07077893
137	0xbdf1f5da	-0.118144706
138	0xbd9793d2	-0.07401241
139	0xbdcc256c	-0.09968075
140	0xbdfac395	-0.122443356
141	0xbdc6aebd	-0.097012974
142	0xbdd8379e	-0.10557483
143	0xbdc40472	-0.095711604
144	0xbd80a401	-0.06281281
145	0xbdc6b8f6	-0.09703247
146	0xbdc357d1	-0.09538234
147	0xbb96e942	-0.004605443
148	0xbdc1d667	-0.09464722
149	0xbca7d9ce	-0.0204896
150	0xbdd6522a	-0.1046489
151	0xbd99f8bc	-0.075181454
152	0xbdead303	-0.114660285
153	0xbd489a02	-0.048975
154	0xbd174eae	-0.03694027
155	0xbca9c447	-0.020723475
156	0xbd27a9e2	-0.040933497
157	0xbdbcc7fd	-0.09217832
158	0xbd8d0b44	-0.06886914
159	0xbc975bc8	-0.018476382
160	0xbd89042d	-0.066902496
161	0xbdce47b7	-0.10072272
162	0xbde67993	-0.11253657
163	0xbdbd4375	-0.09241382
164	0xbd5e8ebe	-0.05433535
165	0xbd877252	-0.06613602
166	0xbcda66b8	-0.026660308
167	0xbd835ce1	-0.064141996
168	0xbd820f78	-0.06350607
169	0xbdf0fbc2	-0.11766769
170	0xbd196baa	-0.037456192
171	0xbdb8dd38	-0.09026569
172	0xbd89872d	-0.06715236
173	0xbd5cb4e4	-0.05388345
174	0xbdc27b12	-0.0949613
175	0xbdaeb074	-0.085297495
176	0xbc27874c	-0.010225128
177	0xbcd74ff1	-0.026283236
178	0xbcd55274	-0.026040293
179	0xbc5bdacb	-0.0134188635
180	0xbdaf806c	-0.085694164
181	0xbc541d5d	-0.012946454
182	0xba666f63	-0.00087904016
183	0xbd0bc690	-0.03412491
184	0xbdd4a7cc	-0.10383567
185	0xbda406ce	-0.080091104
186	0xbd6cf5b7	-0.05785152
187	0xbdbcc65f	-0.09217524
188	0xb9e16992	-0.00042994
189	0xbd060792	-0.032722063
190	0xbd297c62	-0.041378386
191	0xbbe97982	-0.0071250806
192	0xbdb177ef	-0.08665454
193	0xbd8d4f44	-0.06899884
194	0xbe01d70b	-0.12679689
195	0xbdf07630	-0.117412925
196	0xbd8aa036	-0.06768839
197	0xbdd572eb	-0.104223095
198	0xbda34e6f	-0.079739444
199	0xbd81f185	-0.06344894
200	0xbdca778e	-0.098860845
201	0xbd284056	-0.04107698
202	0xbcc9e79f	-0.024646578
203	0xbdc6f080	-0.097138405
204	0xbd82c346	-0.06384902
205	0xbdfadea9	-0.122495
206	0xbda6d1f4	-0.08145514
207	0xbb3517aa	-0.0027632513
208	0xbcdff554	-0.027338661
209	0x3b05f5fb	0.0020440805
210	0xbd6e4b7e	-0.058177464
211	0xbda9687e	-0.082718834
212	0xbd53ede0	-0.051740527
213	0xbd8d9310	-0.069128156
214	0xbdc67f52	-0.09692253
215	0xbce2bea8	-0.027678803
216	0xbd86c9d7	-0.06581467
217	0x3bc360b9	0.005962458
218	0xbdceac10	-0.10091412
219	0xbd77f61c	-0.060537443
220	0xbdbc49c8	-0.0919376
221	0xbdc2bbac	-0.09508452
222	0xbcabc535	-0.02096806
223	0xbdfa4fe0	-0.12222266
224	0xbccd2445	-0.025041709
225	0xbd9146db	-0.07093593
226	0xbdb2be7a	-0.08727737
227	0xbd8514bd	-0.06498096
228	0xbe05493e	-0.13016221
229	0xbde88506	-0.11353497
230	0xbd5be3c7	-0.053684022
231	0xbdfdf087	-0.123993926
232	0xbd6a5c1a	-0.05721674
233	0xbd7e87c5	-0.0621412
234	0xbdd07e24	-0.101803094
235	0xbdc95cc1	-0.098321445
236	0xbd55b928	-0.052178532
237	0xbde14834	-0.110001
238	0xbdb643dd	-0.08899663
239	0xbd2d8ff6	-0.04237362
240	0xbdb53a5e	-0.08849023
241	0xbda0f1e0	-0.07858634
242	0xbdc8626c	-0.097843975
243	0xbde46edc	-0.11153957
244	0xbd5fac60	-0.05460775
245	0xbdd50a87	-0.104023986
246	0xbddc445a	-0.107552245
247	0xbcba58f5	-0.022747496
248	0xbd92aec5	-0.07162241
249	0xbdb1d6ca	-0.08683546
250	0xbdac7d14	-0.08422294
251	0xbd21f4ef	-0.039540228
252	0xbdc5562e	-0.09635578
253	0xbd3bdac0	-0.045862913
254	0xbdd689bb	-0.10475489
255	0xbcc2ad3a	-0.023764241

conv2.0.bias f4 [64]
0	0xbd184b5e	-0.03718125
1	0xbce99617	-0.028513951
2	0xbe00b56d	-0.12569208
3	0xbc662329	-0.014046469
4	0xbdb9a549	-0.09064729
5	0xbdcca193	-0.09991755
6	0xbca8e395	-0.020616332
7	0xbd4fea7a	-0.050760724
8	0xbdcb8b00	-0.099386215
9	0xbd321685	-0.043478508
10	0xbd817438	-0.06320995
11	0xbdc4893b	-0.09596487
12	0xbde2fb59	-0.11083097
13	0xbc084720	-0.008317739
14	0xbd1b7514	-0.03795345
15	0xbdc458e2	-0.095872656
16	0xbd1cc16f	-0.03827041
17	0xbbd2f67b	-0.006438074
18	0xbd14f52e	-0.036366634
19	0xbd7e9954	-0.062157944
20	0xbd11d353	-0.035601925
21	0xbdcae606	-0.09907155
22	0xbd924423	-0.07141902
23	0xbcf3e336	-0.029771429
24	0xbdc74211	-0.09729398
25	0xbe00c4d1	-0.1257508
26	0xbc93dab8	-0.01804863
27	0xbdf23f5b	-0.1182849
28	0xbddf5cc7	-0.10906368
29	0xbd07fc20	-0.03319943
30	0xbde4fbab	-0.11180814
31	0xbca3641d	-0.019945199
32	0xbdfe1f73	-0.12408342
33	0xbd280c2f	-0.041027244
34	0xbc472af9	-0.012156242
35	0xbce6b5f4	-0.028162934
36	0xbd56d86f	-0.0524525
37	0xbdb1eefc	-0.08688161
38	0xbe0ed048	-0.1394664
39	0xbd874f75	-0.06606952
40	0xbd060a73	-0.03272481
41	0xbd29f791	-0.041495863
42	0xbdf0e618	-0.11762637
43	0xbdb36f44	-0.087614566
44	0xbd6f4fe0	-0.058425784
45	0xbe520bde	-0.2051234
46	0xbdb92ce8	-0.09041768
47	0xbdce96e6	-0.10087375
48	0xbde51114	-0.11184898
49	0xbc8bf3ba	-0.017083991
50	0xbd848f43	-0.064726375
51	0xbd481c48	-0.048855096
52	0xbddb91da	-0.10721178
53	0xbd9bea17	-0.076130085
54	0xbdb62225	-0.08893231
55	0xbd5e2bc9	-0.054240976
56	0xbdf5b14c	-0.11996707
57	0xbdc33737	-0.09532016
58	0xbd71ba1a	-0.05901537
59	0xbde8d7b7	-0.11369269
60	0xbd6e29c2	-0.058145292
61	0xbdcca7a4	-0.099929124
62	0xbd91d536	-0.07120745
63	0xbca1bcb9	-0.01974331

out.weight f4 [10, 16384]
0	0xbd57d539	-0.05269358
1	0x3d71323e	0.058885805
2	0x3da04b6d	0.07826886
3	0x3d7656e3	0.060141455
4	0x3d712160	0.05886972
5	0x3d65f655	0.056143124
6	0x3cec9eed	0.028884375
7	0x3c890810	0.016727477
8	0x3cd02601	0.025408747
9	0x3ce6c92c	0.028172098
10	0x3d1a7ad3	0.03771479
11	0x3d7eadf3	0.06217761
12	0x3d38d3b1	0.04512376
13	0xbdbafafe	-0.09129904
14	0x3d892f91	0.06698526
15	0x3d5ca48b	0.053867858
16	0xbb2d0388	-0.002639981
17	0x3d78b0f6	0.060715638
18	0x3da12459	0.07868261
19	0x3d8b15de	0.0679128
20	0x3d092105	0.033478756
21	0x3c208088	0.009796269
22	0x3c60a764	0.013711784
23	0x3c97ad2a	0.018515188
24	0xbb5ab80b	-0.0033373858
25	0xbc4864b8	-0.0122310445
26	0x3d2863a8	0.041110665
27	0x3c9ba82a	0.019001085
28	0x3d6682c5	0.056277055
29	0x3cb2479a	0.021762658
30	0xbd1f3725	-0.03887095
31	0xbb04aeac	-0.0020245714
32	0xbb67cc70	-0.0035369657
33	0x3d560271	0.052248422
34	0x3dacf5a0	0.08445287
35	0x3da70980	0.08156109
36	0x3d78e696	0.06076678
37	0x3d291463	0.041279208
38	0x3b455bf2	0.0030114618
39	0xba4318d0	-0.0007442357
40	0xbcc2ec3d	-0.023794288
41	0xbc7d2e2e	-0.015452905
42	0x3b9f06a1	0.004853085
43	0xbd339eed	-0.043852735
44	0xbdcb37e1	-0.099227674
45	0xbd78f8b0	-0.060784042
46	0xbc357fb3	-0.011077809
47	0xbbc6ae92	-0.006063291
48	0xbd98ece5	-0.07467059
49	0x3d5c604e	0.05380278
50	0x3db51dcc	0.08843574
51	0x3da03882	0.07823278
52	0x3d59737f	0.05308866
53	0x3cfd2415	0.030900994
54	0x3b9fcd9c	0.0048768055
55	0xba9a57d1	-0.0011775439
56	0xbc75cf46	-0.015003031
57	0xbcd26346	-0.025682103
58	0xbc6643a2	-0.014054211
59	0xbdb6c463	-0.089241765
60	0xbdcf4ae9	-0.1012171
61	0xbd7d8fe9	-0.06190482
62	0xbd40d1bb	-0.047075015
63	0xbbc1df22	-0.005916492
64	0xbd909a7e	-0.07060717
65	0x3d929457	0.071572
66	0x3db35d94	0.08758083
67	0x3d8d3fa9	0.06896908
68	0x3d0145eb	0.03156082
69	0x3c8e4162	0.017365161
70	0x3bf00133	0.0073243617
71	0xbb95c638	-0.0045707487
72	0xbc8edb89	-0.017438667
73	0xbcd38d51	-0.02582422
74	0xbd1180e5	-0.035523314
75	0xbdb5244e	-0.08844815
76	0xbd4eeabf	-0.05051684
77	0xbd968559	-0.07349653
78	0xbd6782e3	-0.056521308
79	0x3b90d704	0.004420163
80	0xbd96e178	-0.073672235
81	0x3d0da234	0.034578517
82	0x3d5c69af	0.053811725
83	0x3d95c4f2	0.07312955
84	0x3d379ef9	0.044829343
85	0x3c801095	0.015632907
86	0x3c4c06f5	0.012452831
87	0xbbfad089	-0.007654254
88	0xbc63e684	-0.01390994
89	0xbcd70076	-0.026245337
90	0xbd1ff131	-0.039048377
91	0xbdad1be5	-0.08452586
92	0xbd5abe7a	-0.05340431
93	0xbd7aa0af	-0.061188396
94	0xbd588f28	-0.0528709
95	0x3ba4bb6c	0.0050272252
96	0x3d736577	0.059422936
97	0xbd8554bb	-0.06510302
98	0xbdac25fb	-0.08405682
99	0x3d0dd005	0.03462221
100	0x3d23da88	0.04000333
101	0x3d0829da	0.033243038
102	0x3d055dbc	0.032560095
103	0x3ce0cf1b	0.027442506
104	0xbc49ae99	-0.012309694
105	0xbc85691a	-0.016285468
106	0xbba996ce	-0.005175448
107	0xbd3ecc4c	-0.04658155
108	0xbd086297	-0.033297148
109	0xbd996835	-0.07490579
110	0xbd550e6f	-0.052015718
111	0xbb4f95f8	-0.0031675082
112	0xbd7734c7	-0.060353067
113	0xbd8830d3	-0.066499375
114	0xbd88d95a	-0.066820815
115	0xbc93d04f	-0.018043665
116	0x3b7c650c	0.0038512377
117	0x3d17f448	0.0370982
118	0x3d08a790	0.033362925
119	0x3cbf59e6	0.023358297
120	0x3bbefe42	0.0058286497
121	0xbc0c7b40	-0.008574307
122	0x3be63e1e	0.007026448
123	0xbca9885e	-0.020694908
124	0xbc9ed171	-0.019386979
125	0xbdabb33a	-0.08383794
126	0xbd5abef0	-0.05340475
127	0xbb963240	-0.004583627
128	0xbd65d95d	-0.056115497
129	0xbd4a0b1f	-0.049327012
130	0xbd1e1645	-0.038595457
131	0x3d684690	0.05670792
132	0x3b730fb7	0.0037088224
133	0x3d016df1	0.03159899
134	0x3c99318d	0.018700385
135	0x3c315791	0.0108241
136	0x3ca96c23	0.020681446
137	0x3ccfc487	0.025362266
138	0xbafc11ac	-0.0019231341
139	0x3be81649	0.0070827347
140	0xbd95028b	-0.07275876
141	0xbdb9f1d5	-0.09079329
142	0xbd5fe373	-0.05466027
143	0x3d86633b	0.065618955
144	0xbd985c02	-0.07439424
145	0xbd838125	-0.06421117
146	0xbd877c72	-0.06615533
147	0x3b884e92	0.004159757
148	0x3cd03fc4	0.02542103
149	0x3cd617f0	0.026134461
150	0x3c0011e2	0.007816764
151	0x3c674b6e	0.014117105
152	0x3cb79efd	0.022414679
153	0x3cc0f30a	0.02355339
154	0x3cde779a	0.02715664
155	0xbcac42c0	-0.021027923
156	0xbd0fa71f	-0.03507149
157	0xbdc038a3	-0.093858026
158	0xbd880b50	-0.06642783
159	0xbd6dca12	-0.058054037
160	0xbd8631cc	-0.06552467
161	0xbd84d361	-0.0648563
162	0xbd8d17ce	-0.06889306
163	0x3d1eb6eb	0.038748663
164	0x3d11c49f	0.035587903
165	0xbb4b1307	-0.0030986683
166	0xbc444816	-0.011980077
167	0x3cb29e88	0.02180411
168	0x3cf0231e	0.02931362
169	0x3d028496	0.031864725
170	0x3ca26f4e	0.019828465
171	0x3a60a0ec	0.0008568901
172	0xbb7c60c1	-0.0038509818
173	0x3d7c83f5	0.06164928
174	0xbda8d1de	-0.08243154
175	0x3d448b36	0.047984324
176	0xbd6860d6	-0.056732975
177	0xbd592dda	-0.053022243
178	0xbd9d3e2a	-0.076778725
179	0x3b340256	0.0027467213
180	0x3b691181	0.0035563412
181	0xbc8b4e8c	-0.017005228
182	0xbd5e6989	-0.054299865
183	0x3c03f360	0.008053631
184	0x3d66945b	0.056293827
185	0x3d15a790	0.036536753
186	0x3c8bc847	0.017063273
187	0xbbe16147	-0.0068780514
188	0xbbb58f8b	-0.0055407933
189	0x3d6045c5	0.054754037
190	0x3d400a1e	0.04688465
191	0xbd71c79e	-0.05902826
192	0xbd852c8a	-0.06502636
193	0xbd8b988e	-0.06816207
194	0xbda51e01	-0.080623634
195	0xbdbce638	-0.09223598
196	0xbdb2a6b6	-0.08723204
197	0xbda69fcd	-0.08135948
198	0xbda0d000	-0.07852173
199	0xbdb4166d	-0.0879334
200	0x3d2f879d	0.04285394
201	0x3d010cee	0.03150647
202	0x3c0d8ada	0.008639062
203	0x3c66d3b3	0.014088559
204	0xbbc79dd2	-0.0060918117
205	0x3cb70e69	0.022345738
206	0x3d22c2b8	0.03973648
207	0xbd976dbd	-0.07393978
208	0xbd893259	-0.06699056
209	0xbd83ab8f	-0.064292066
210	0xbd92dff7	-0.07171624
211	0xbdb4dc15	-0.0883104
212	0xbdbc34e7	-0.09189778
213	0xbdacf10f	-0.08444416
214	0xbd331bfd	-0.043727864
215	0xbd2e6d3e	-0.04258465
216	0x3d38b3d7	0.045093384
217	0x3ce4ce6e	0.027930465
218	0x3c7a725d	0.015286055
219	0x3c39f7bb	0.011350567
220	0xbc537a11	-0.012907521
221	0x3ce63e4c	0.028105877
222	0xbd972747	-0.073805384
223	0xbd7d9654	-0.061910942
224	0xbd6f4796	-0.05841788
225	0xbd623b4e	-0.05523234
226	0xbd8b65f0	-0.068065524
227	0xbda5f0cd	-0.0810257
228	0xbdb2c9e3	-0.08729913
229	0xbd937ebd	-0.07201908
230	0xbc0d96c4	-0.008641902
231	0x3cec5158	0.028847381
232	0x3d4b12c7	0.049578454
233	0x3ca6cbdf	0.020360885
234	0x3c2fe04b	0.010734628
235	0x3c9cb6d9	0.019130157
236	0x3c481e4d	0.0122142555
237	0x3caca77c	0.021075957
238	0xbd9add73	-0.07561769
239	0xbd9be81b	-0.0761263
240	0xbd8de84c	-0.06929073
241	0xbd8999db	-0.06718799
242	0xbd90907d	-0.07058809
243	0xbc6ac8d9	-0.014330112
244	0xbd75d23a	-0.06001494
245	0xbd50b8ea	-0.050957598
246	0xbbbdf0c3	-0.0057965233
247	0x3cf8751e	0.030329283
248	0x3d4c5ca2	0.04989303
249	0x3cbe9e2e	0.023268785
250	0x3ca8064e	0.020510819
251	0x3cb3f1b1	0.021965833
252	0x3d330030	0.04370135
253	0x3cc30d89	0.023810165
254	0xbc83b9c2	-0.016079787
255	0x3d5d3a93	0.05401094

out.bias f4 [10]
0	0xbdbd76a1	-0.09251142
1	0xbe11f30f	-0.14252876
2	0x3c44db14	0.012015123
3	0xbdda97fa	-0.106735185
4	0x3c2bd411	0.010487572
5	0x3d62a77c	0.055335507
6	0x3e2ceda3	0.16887526
7	0x3df5fd82	0.120112434
8	0x3d9177ce	0.07102929
9	0x3c6cb702	0.014447929
